savedweights/q_weight1.npy (npy, 560 bytes, 1 tensors)

array f8 [6, 1, 3, 3]
000000 00 00 00 00 00 00 08 c0 00 00 00 00 00 00 3b 40
       -3.0 27.0
000010 00 00 00 00 00 40 52 c0 00 00 00 00 00 00 2e 40
       -73.0 15.0
000020 00 00 00 00 00 00 38 40 00 00 00 00 00 00 5b c0
       24.0 -108.0
000030 00 00 00 00 00 00 20 40 00 00 00 00 00 80 59 40
       8.0 102.0
000040 00 00 00 00 00 00 08 40 00 00 00 00 00 80 42 40
       3.0 37.0
000050 00 00 00 00 00 00 4a 40 00 00 00 00 00 00 56 40
       52.0 88.0
000060 00 00 00 00 00 00 4b 40 00 00 00 00 00 00 14 c0
       54.0 -5.0
000070 00 00 00 00 00 80 4f c0 00 00 00 00 00 00 1c 40
       -63.0 7.0
000080 00 00 00 00 00 80 40 40 00 00 00 00 00 00 49 40
       33.0 50.0
000090 00 00 00 00 00 00 08 c0 00 00 00 00 00 80 47 c0
       -3.0 -47.0
0000a0 00 00 00 00 00 a0 61 c0 00 00 00 00 00 60 61 c0
       -141.0 -139.0
0000b0 00 00 00 00 00 80 48 40 00 00 00 00 00 00 44 c0
       49.0 -40.0
0000c0 00 00 00 00 00 40 5a 40 00 00 00 00 00 40 61 c0
       105.0 -138.0
0000d0 00 00 00 00 00 00 1c c0 00 00 00 00 00 00 20 40
       -7.0 8.0
0000e0 00 00 00 00 00 c0 52 40 00 00 00 00 00 c0 50 c0
       75.0 -67.0
0000f0 00 00 00 00 00 00 4d 40 00 00 00 00 00 00 33 40
       58.0 19.0
000100 00 00 00 00 00 00 56 c0 00 00 00 00 00 80 4d c0
       -88.0 -59.0
000110 00 00 00 00 00 c0 52 40 00 00 00 00 00 00 38 c0
       75.0 -24.0
000120 00 00 00 00 00 80 44 c0 00 00 00 00 00 c0 62 c0
       -41.0 -150.0
000130 00 00 00 00 00 00 41 c0 00 00 00 00 00 00 3c 40
       -34.0 28.0
000140 00 00 00 00 00 c0 51 c0 00 00 00 00 00 80 49 40
       -71.0 51.0
000150 00 00 00 00 00 00 39 c0 00 00 00 00 00 00 f0 3f
       -25.0 1.0
000160 00 00 00 00 00 80 41 40 00 00 00 00 00 80 49 40
       35.0 51.0
000170 00 00 00 00 00 00 44 c0 00 00 00 00 00 00 43 c0
       -40.0 -38.0
000180 00 00 00 00 00 00 33 c0 00 00 00 00 00 00 4f 40
       -19.0 62.0
000190 00 00 00 00 00 80 44 c0 00 00 00 00 00 00 49 40
       -41.0 50.0
0001a0 00 00 00 00 00 00 f0 bf 00 00 00 00 00 00 34 40
       -1.0 20.0
