savedweights/q_weight2.npy (npy, 2720 bytes, 1 tensors)

array f8 [6, 6, 3, 3]
000000 00 00 00 00 00 00 3e 40 00 00 00 00 00 00 3e c0
       30.0 -30.0
000010 00 00 00 00 00 00 3b c0 00 00 00 00 00 00 28 40
       -27.0 12.0
000020 00 00 00 00 00 40 5b c0 00 00 00 00 00 80 43 40
       -109.0 39.0
000030 00 00 00 00 00 00 49 40 00 00 00 00 00 80 42 c0
       50.0 -37.0
000040 00 00 00 00 00 00 38 c0 00 00 00 00 00 80 4a 40
       -24.0 53.0
000050 00 00 00 00 00 00 4c 40 00 00 00 00 00 00 2a c0
       56.0 -13.0
000060 00 00 00 00 00 80 43 c0 00 00 00 00 00 00 20 c0
       -39.0 -8.0
000070 00 00 00 00 00 00 08 c0 00 00 00 00 00 80 40 c0
       -3.0 -33.0
000080 00 00 00 00 00 00 35 40 00 00 00 00 00 c0 5a c0
       21.0 -107.0
000090 00 00 00 00 00 80 4a c0 00 00 00 00 00 00 4a c0
       -53.0 -52.0
0000a0 00 00 00 00 00 00 24 c0 00 00 00 00 00 80 49 40
       -10.0 51.0
0000b0 00 00 00 00 00 00 52 40 00 00 00 00 00 00 4f c0
       72.0 -62.0
0000c0 00 00 00 00 00 00 31 c0 00 00 00 00 00 c0 5c 40
       -17.0 115.0
0000d0 00 00 00 00 00 80 40 40 00 00 00 00 00 00 37 c0
       33.0 -23.0
0000e0 00 00 00 00 00 80 4f 40 00 00 00 00 00 80 52 40
       63.0 74.0
0000f0 00 00 00 00 00 c0 54 c0 00 00 00 00 00 80 49 40
       -83.0 51.0
000100 00 00 00 00 00 80 42 c0 00 00 00 00 00 c0 54 c0
       -37.0 -83.0
000110 00 00 00 00 00 00 14 c0 00 00 00 00 00 00 3c c0
       -5.0 -28.0
000120 00 00 00 00 00 80 47 40 00 00 00 00 00 00 2a c0
       47.0 -13.0
000130 00 00 00 00 00 00 28 40 00 00 00 00 00 00 54 c0
       12.0 -80.0
000140 00 00 00 00 00 00 3a c0 00 00 00 00 00 00 3d 40
       -26.0 29.0
000150 00 00 00 00 00 80 47 c0 00 00 00 00 00 00 34 40
       -47.0 20.0
000160 00 00 00 00 00 00 00 00 00 00 00 00 00 00 3c 40
       0.0 28.0
000170 00 00 00 00 00 00 2a 40 00 00 00 00 00 80 4c c0
       13.0 -57.0
000180 00 00 00 00 00 00 39 c0 00 00 00 00 00 00 41 40
       -25.0 34.0
000190 00 00 00 00 00 00 34 40 00 00 00 00 00 00 22 40
       20.0 9.0
0001a0 00 00 00 00 00 80 51 c0 00 00 00 00 00 00 2c 40
       -70.0 14.0
0001b0 00 00 00 00 00 80 47 c0 00 00 00 00 00 00 46 c0
       -47.0 -44.0
0001c0 00 00 00 00 00 00 47 c0 00 00 00 00 00 00 24 c0
       -46.0 -10.0
0001d0 00 00 00 00 00 00 4a c0 00 00 00 00 00 40 55 c0
       -52.0 -85.0
0001e0 00 00 00 00 00 80 4d 40 00 00 00 00 00 80 4d 40
       59.0 59.0
0001f0 00 00 00 00 00 00 4f 40 00 00 00 00 00 80 47 40
       62.0 47.0
000200 00 00 00 00 00 80 50 c0 00 00 00 00 00 00 52 40
       -66.0 72.0
000210 00 00 00 00 00 00 39 c0 00 00 00 00 00 00 47 c0
       -25.0 -46.0
000220 00 00 00 00 00 00 18 c0 00 00 00 00 00 00 44 c0
       -6.0 -40.0
000230 00 00 00 00 00 c0 53 c0 00 00 00 00 00 c0 50 c0
       -79.0 -67.0
000240 00 00 00 00 00 00 50 40 00 00 00 00 00 00 42 c0
       64.0 -36.0
000250 00 00 00 00 00 00 52 40 00 00 00 00 00 80 54 c0
       72.0 -82.0
000260 00 00 00 00 00 80 42 c0 00 00 00 00 00 00 4d c0
       -37.0 -58.0
000270 00 00 00 00 00 00 10 c0 00 00 00 00 00 00 41 40
       -4.0 34.0
000280 00 00 00 00 00 80 42 40 00 00 00 00 00 80 43 40
       37.0 39.0
000290 00 00 00 00 00 00 24 40 00 00 00 00 00 00 14 c0
       10.0 -5.0
0002a0 00 00 00 00 00 00 f0 bf 00 00 00 00 00 80 53 40
       -1.0 78.0
0002b0 00 00 00 00 00 00 42 40 00 00 00 00 00 c0 51 c0
       36.0 -71.0
0002c0 00 00 00 00 00 00 22 c0 00 00 00 00 00 00 20 c0
       -9.0 -8.0
0002d0 00 00 00 00 00 80 56 40 00 00 00 00 00 80 41 40
       90.0 35.0
0002e0 00 00 00 00 00 00 34 c0 00 00 00 00 00 00 4f c0
       -20.0 -62.0
0002f0 00 00 00 00 00 00 18 c0 00 00 00 00 00 00 35 40
       -6.0 21.0
000300 00 00 00 00 00 00 2a c0 00 00 00 00 00 00 35 c0
       -13.0 -21.0
000310 00 00 00 00 00 00 28 40 00 00 00 00 00 00 44 40
       12.0 40.0
000320 00 00 00 00 00 00 3d 40 00 00 00 00 00 80 52 40
       29.0 74.0
000330 00 00 00 00 00 00 10 40 00 00 00 00 00 00 24 c0
       4.0 -10.0
000340 00 00 00 00 00 c0 5a c0 00 00 00 00 00 00 14 c0
       -107.0 -5.0
000350 00 00 00 00 00 00 5a 40 00 00 00 00 00 00 5a 40
       104.0 104.0
000360 00 00 00 00 00 00 42 c0 00 00 00 00 00 00 47 40
       -36.0 46.0
000370 00 00 00 00 00 80 4d 40 00 00 00 00 00 80 40 c0
       59.0 -33.0
000380 00 00 00 00 00 00 2e c0 00 00 00 00 00 00 3e 40
       -15.0 30.0
000390 00 00 00 00 00 80 47 40 00 00 00 00 00 00 35 c0
       47.0 -21.0
0003a0 00 00 00 00 00 00 4e c0 00 00 00 00 00 00 3c c0
       -60.0 -28.0
0003b0 00 00 00 00 00 80 4d c0 00 00 00 00 00 00 39 c0
       -59.0 -25.0
0003c0 00 00 00 00 00 00 28 40 00 00 00 00 00 00 10 c0
       12.0 -4.0
0003d0 00 00 00 00 00 00 2c c0 00 00 00 00 00 00 53 40
       -14.0 76.0
0003e0 00 00 00 00 00 00 4a 40 00 00 00 00 00 80 45 40
       52.0 43.0
0003f0 00 00 00 00 00 00 28 c0 00 00 00 00 00 80 51 c0
       -12.0 -70.0
000400 00 00 00 00 00 80 48 40 00 00 00 00 00 00 36 c0
       49.0 -22.0
000410 00 00 00 00 00 00 4f c0 00 00 00 00 00 c0 57 c0
       -62.0 -95.0
000420 00 00 00 00 00 80 4b c0 00 00 00 00 00 00 08 c0
       -55.0 -3.0
000430 00 00 00 00 00 00 20 40 00 00 00 00 00 00 f0 3f
       8.0 1.0
000440 00 00 00 00 00 80 5f c0 00 00 00 00 00 40 55 c0
       -126.0 -85.0
000450 00 00 00 00 00 00 00 40 00 00 00 00 00 00 00 c0
       2.0 -2.0
000460 00 00 00 00 00 80 44 c0 00 00 00 00 00 00 41 c0
       -41.0 -34.0
000470 00 00 00 00 00 00 18 c0 00 00 00 00 00 00 3f 40
       -6.0 31.0
000480 00 00 00 00 00 00 35 c0 00 00 00 00 00 00 4e 40
       -21.0 60.0
000490 00 00 00 00 00 00 14 c0 00 00 00 00 00 80 41 40
       -5.0 35.0
0004a0 00 00 00 00 00 00 39 c0 00 00 00 00 00 00 4d c0
       -25.0 -58.0
0004b0 00 00 00 00 00 80 46 40 00 00 00 00 00 00 46 40
       45.0 44.0
0004c0 00 00 00 00 00 80 48 40 00 00 00 00 00 80 47 c0
       49.0 -47.0
0004d0 00 00 00 00 00 c0 51 c0 00 00 00 00 00 00 28 c0
       -71.0 -12.0
0004e0 00 00 00 00 00 00 46 c0 00 00 00 00 00 00 00 40
       -44.0 2.0
0004f0 00 00 00 00 00 00 45 c0 00 00 00 00 00 00 3c c0
       -42.0 -28.0
000500 00 00 00 00 00 00 43 40 00 00 00 00 00 00 43 40
       38.0 38.0
000510 00 00 00 00 00 40 51 40 00 00 00 00 00 00 20 c0
       69.0 -8.0
000520 00 00 00 00 00 00 38 c0 00 00 00 00 00 00 14 40
       -24.0 5.0
000530 00 00 00 00 00 00 4c 40 00 00 00 00 00 00 47 c0
       56.0 -46.0
000540 00 00 00 00 00 c0 53 40 00 00 00 00 00 00 31 c0
       79.0 -17.0
000550 00 00 00 00 00 00 28 c0 00 00 00 00 00 00 48 c0
       -12.0 -48.0
000560 00 00 00 00 00 00 f0 bf 00 00 00 00 00 40 59 c0
       -1.0 -101.0
000570 00 00 00 00 00 00 32 40 00 00 00 00 00 00 4b 40
       18.0 54.0
000580 00 00 00 00 00 00 39 40 00 00 00 00 00 00 3d 40
       25.0 29.0
000590 00 00 00 00 00 00 22 40 00 00 00 00 00 80 41 c0
       9.0 -35.0
0005a0 00 00 00 00 00 80 45 40 00 00 00 00 00 80 47 40
       43.0 47.0
0005b0 00 00 00 00 00 00 4d 40 00 00 00 00 00 20 60 40
       58.0 129.0
0005c0 00 00 00 00 00 80 4e c0 00 00 00 00 00 00 2e 40
       -61.0 15.0
0005d0 00 00 00 00 00 80 53 40 00 00 00 00 00 00 54 40
       78.0 80.0
0005e0 00 00 00 00 00 00 32 40 00 00 00 00 00 00 53 c0
       18.0 -76.0
0005f0 00 00 00 00 00 00 14 c0 00 00 00 00 00 00 3e 40
       -5.0 30.0
000600 00 00 00 00 00 00 08 40 00 00 00 00 00 00 40 c0
       3.0 -32.0
000610 00 00 00 00 00 00 3d 40 00 00 00 00 00 80 4f c0
       29.0 -63.0
000620 00 00 00 00 00 00 24 40 00 00 00 00 00 80 4b c0
       10.0 -55.0
000630 00 00 00 00 00 c0 54 c0 00 00 00 00 00 00 18 40
       -83.0 6.0
000640 00 00 00 00 00 00 46 40 00 00 00 00 00 00 3c c0
       44.0 -28.0
000650 00 00 00 00 00 40 57 c0 00 00 00 00 00 40 51 c0
       -93.0 -69.0
000660 00 00 00 00 00 80 45 c0 00 00 00 00 00 00 4a 40
       -43.0 52.0
000670 00 00 00 00 00 00 45 c0 00 00 00 00 00 80 44 40
       -42.0 41.0
000680 00 00 00 00 00 80 40 c0 00 00 00 00 00 80 50 c0
       -33.0 -66.0
000690 00 00 00 00 00 00 3e 40 00 00 00 00 00 00 56 c0
       30.0 -88.0
0006a0 00 00 00 00 00 00 10 40 00 00 00 00 00 00 35 40
       4.0 21.0
0006b0 00 00 00 00 00 00 31 40 00 00 00 00 00 00 18 40
       17.0 6.0
0006c0 00 00 00 00 00 00 51 c0 00 00 00 00 00 00 33 40
       -68.0 19.0
0006d0 00 00 00 00 00 00 18 40 00 00 00 00 00 00 41 40
       6.0 34.0
0006e0 00 00 00 00 00 80 43 c0 00 00 00 00 00 00 2a c0
       -39.0 -13.0
0006f0 00 00 00 00 00 40 50 40 00 00 00 00 00 00 45 40
       65.0 42.0
000700 00 00 00 00 00 00 08 c0 00 00 00 00 00 80 46 40
       -3.0 45.0
000710 00 00 00 00 00 00 08 40 00 00 00 00 00 00 3d c0
       3.0 -29.0
000720 00 00 00 00 00 00 40 40 00 00 00 00 00 00 4a 40
       32.0 52.0
000730 00 00 00 00 00 00 40 40 00 00 00 00 00 00 31 c0
       32.0 -17.0
000740 00 00 00 00 00 00 2c 40 00 00 00 00 00 00 46 c0
       14.0 -44.0
000750 00 00 00 00 00 80 41 40 00 00 00 00 00 00 45 c0
       35.0 -42.0
000760 00 00 00 00 00 00 3c 40 00 00 00 00 00 00 22 c0
       28.0 -9.0
000770 00 00 00 00 00 40 54 c0 00 00 00 00 00 00 28 40
       -81.0 12.0
000780 00 00 00 00 00 00 41 c0 00 00 00 00 00 00 40 c0
       -34.0 -32.0
000790 00 00 00 00 00 00 28 c0 00 00 00 00 00 00 30 40
       -12.0 16.0
0007a0 00 00 00 00 00 00 2c c0 00 00 00 00 00 00 49 40
       -14.0 50.0
0007b0 00 00 00 00 00 00 30 c0 00 00 00 00 00 00 00 40
       -16.0 2.0
0007c0 00 00 00 00 00 00 49 c0 00 00 00 00 00 00 3c c0
       -50.0 -28.0
0007d0 00 00 00 00 00 00 32 40 00 00 00 00 00 00 32 40
       18.0 18.0
0007e0 00 00 00 00 00 00 20 40 00 00 00 00 00 40 50 c0
       8.0 -65.0
0007f0 00 00 00 00 00 00 14 c0 00 00 00 00 00 00 36 c0
       -5.0 -22.0
