savedweights/q_weightout.npy (npy, 5248 bytes, 1 tensors)

array f8 [64, 10]
0	0xc02e000000000000	-15.0
1	0x4047800000000000	47.0
2	0xc051800000000000	-70.0
3	0x4033000000000000	19.0
4	0xc04c000000000000	-56.0
5	0xc03a000000000000	-26.0
6	0xc052400000000000	-73.0
7	0x4020000000000000	8.0
8	0xc02e000000000000	-15.0
9	0xc055000000000000	-84.0
10	0x4022000000000000	9.0
11	0xc042800000000000	-37.0
12	0x4038000000000000	24.0
13	0x4047000000000000	46.0
14	0xc04b000000000000	-54.0
15	0x4051800000000000	70.0
16	0xc036000000000000	-22.0
17	0x4010000000000000	4.0
18	0x4055800000000000	86.0
19	0xc04c800000000000	-57.0
20	0xc044800000000000	-41.0
21	0xc048000000000000	-48.0
22	0x4047000000000000	46.0
23	0xbff0000000000000	-1.0
24	0xc030000000000000	-16.0
25	0x4049800000000000	51.0
26	0x404f000000000000	62.0
27	0x4047000000000000	46.0
28	0xc03e000000000000	-30.0
29	0x4047000000000000	46.0
30	0xc058800000000000	-98.0
31	0x4054c00000000000	83.0
32	0xc043000000000000	-38.0
33	0x4020000000000000	8.0
34	0xc050000000000000	-64.0
35	0x4054000000000000	80.0
36	0xc020000000000000	-8.0
37	0xc057000000000000	-92.0
38	0x405b000000000000	108.0
39	0xc030000000000000	-16.0
40	0xc038000000000000	-24.0
41	0x4018000000000000	6.0
42	0xc041800000000000	-35.0
43	0x4036000000000000	22.0
44	0xc050000000000000	-64.0
45	0xc053800000000000	-78.0
46	0xc010000000000000	-4.0
47	0xc04f800000000000	-63.0
48	0xc047000000000000	-46.0
49	0x4051000000000000	68.0
50	0x4042800000000000	37.0
51	0x403b000000000000	27.0
52	0x401c000000000000	7.0
53	0x404c800000000000	57.0
54	0x4043800000000000	39.0
55	0xc03c000000000000	-28.0
56	0x4054c00000000000	83.0
57	0x4056c00000000000	91.0
58	0x403b000000000000	27.0
59	0x403d000000000000	29.0
60	0x4052400000000000	73.0
61	0xc04d000000000000	-58.0
62	0xc034000000000000	-20.0
63	0xc051c00000000000	-71.0
64	0xc04d000000000000	-58.0
65	0x4047800000000000	47.0
66	0xc037000000000000	-23.0
67	0x4036000000000000	22.0
68	0xc010000000000000	-4.0
69	0x4035000000000000	21.0
70	0x4051800000000000	70.0
71	0x405b400000000000	109.0
72	0x4036000000000000	22.0
73	0xc04e000000000000	-60.0
74	0x404f800000000000	63.0
75	0xc03e000000000000	-30.0
76	0xc053c00000000000	-79.0
77	0x4018000000000000	6.0
78	0x404b800000000000	55.0
79	0x4008000000000000	3.0
80	0xc054400000000000	-81.0
81	0xc046000000000000	-44.0
82	0xc04b000000000000	-54.0
83	0xc02a000000000000	-13.0
84	0xc03d000000000000	-29.0
85	0x0000000000000000	0.0
86	0xc054800000000000	-82.0
87	0xc03f000000000000	-31.0
88	0x4037000000000000	23.0
89	0xc04b000000000000	-54.0
90	0x4048800000000000	49.0
91	0xc055000000000000	-84.0
92	0xc044800000000000	-41.0
93	0x403d000000000000	29.0
94	0xc055800000000000	-86.0
95	0xc05a800000000000	-106.0
96	0x4050400000000000	65.0
97	0xc055400000000000	-85.0
98	0xc052000000000000	-72.0
99	0x404b800000000000	55.0
100	0x403d000000000000	29.0
101	0xc039000000000000	-25.0
102	0x4059400000000000	101.0
103	0x4048000000000000	48.0
104	0xc050000000000000	-64.0
105	0x401c000000000000	7.0
106	0x4057c00000000000	95.0
107	0x4043000000000000	38.0
108	0xc04c800000000000	-57.0
109	0x4008000000000000	3.0
110	0x4050800000000000	66.0
111	0xc045000000000000	-42.0
112	0x4050800000000000	66.0
113	0x4000000000000000	2.0
114	0x4051400000000000	69.0
115	0x4043800000000000	39.0
116	0x0000000000000000	0.0
117	0x4043000000000000	38.0
118	0xc041000000000000	-34.0
119	0xc03f000000000000	-31.0
120	0x4043800000000000	39.0
121	0xc033000000000000	-19.0
122	0xc052400000000000	-73.0
123	0x4024000000000000	10.0
124	0xc037000000000000	-23.0
125	0x4051c00000000000	71.0
126	0x4049000000000000	50.0
127	0x4036000000000000	22.0
128	0x4034000000000000	20.0
129	0xc032000000000000	-18.0
130	0x4053000000000000	76.0
131	0x403e000000000000	30.0
132	0x4041000000000000	34.0
133	0x404d800000000000	59.0
134	0xc037000000000000	-23.0
135	0xc054000000000000	-80.0
136	0xc058c00000000000	-99.0
137	0x4055000000000000	84.0
138	0xc01c000000000000	-7.0
139	0xc040800000000000	-33.0
140	0x404c000000000000	56.0
141	0xc022000000000000	-9.0
142	0xc010000000000000	-4.0
143	0xc033000000000000	-19.0
144	0xc051800000000000	-70.0
145	0xc04f000000000000	-62.0
146	0xc057800000000000	-94.0
147	0xc059400000000000	-101.0
148	0x4044800000000000	41.0
149	0xc050c00000000000	-67.0
150	0xc048800000000000	-49.0
151	0x402c000000000000	14.0
152	0xc050400000000000	-65.0
153	0x4044800000000000	41.0
154	0x4059800000000000	102.0
155	0xc051c00000000000	-71.0
156	0xc000000000000000	-2.0
157	0x4008000000000000	3.0
158	0x4020000000000000	8.0
159	0xc048800000000000	-49.0
160	0xc046000000000000	-44.0
161	0xc037000000000000	-23.0
162	0xc045000000000000	-42.0
163	0x405c000000000000	112.0
164	0xc041800000000000	-35.0
165	0x4036000000000000	22.0
166	0xc047800000000000	-47.0
167	0xc038000000000000	-24.0
168	0xc03e000000000000	-30.0
169	0x3ff0000000000000	1.0
170	0xc030000000000000	-16.0
171	0xc032000000000000	-18.0
172	0xc048800000000000	-49.0
173	0x4057800000000000	94.0
174	0x4026000000000000	11.0
175	0x403b000000000000	27.0
176	0x404b000000000000	54.0
177	0x405c400000000000	113.0
178	0xc048000000000000	-48.0
179	0xc049000000000000	-50.0
180	0xc054000000000000	-80.0
181	0x4010000000000000	4.0
182	0x404f000000000000	62.0
183	0x404c000000000000	56.0
184	0x4034000000000000	20.0
185	0xc040000000000000	-32.0
186	0x404e800000000000	61.0
187	0xc050c00000000000	-67.0
188	0x4039000000000000	25.0
189	0xc051800000000000	-70.0
190	0x4039000000000000	25.0
191	0x4054000000000000	80.0
192	0xc03b000000000000	-27.0
193	0x4008000000000000	3.0
194	0xc02c000000000000	-14.0
195	0x4050c00000000000	67.0
196	0x4054c00000000000	83.0
197	0xc050c00000000000	-67.0
198	0x4051800000000000	70.0
199	0x4040800000000000	33.0
200	0x403c000000000000	28.0
201	0x403a000000000000	26.0
202	0xc04c800000000000	-57.0
203	0xc051000000000000	-68.0
204	0xc035000000000000	-21.0
205	0xc04d800000000000	-59.0
206	0x4031000000000000	17.0
207	0xc04b000000000000	-54.0
208	0x403f000000000000	31.0
209	0xc052400000000000	-73.0
210	0xc033000000000000	-19.0
211	0xc04f000000000000	-62.0
212	0xc03a000000000000	-26.0
213	0xc04d800000000000	-59.0
214	0xc033000000000000	-19.0
215	0x4056800000000000	90.0
216	0xc03a000000000000	-26.0
217	0xc034000000000000	-20.0
218	0xc014000000000000	-5.0
219	0x4042000000000000	36.0
220	0x4040800000000000	33.0
221	0xc01c000000000000	-7.0
222	0x405f400000000000	125.0
223	0x4008000000000000	3.0
224	0x404c800000000000	57.0
225	0x4055800000000000	86.0
226	0x403d000000000000	29.0
227	0x4018000000000000	6.0
228	0x4053000000000000	76.0
229	0x404e000000000000	60.0
230	0xc054800000000000	-82.0
231	0x403c000000000000	28.0
232	0x404b800000000000	55.0
233	0x4040000000000000	32.0
234	0xc044000000000000	-40.0
235	0x4051c00000000000	71.0
236	0x4040800000000000	33.0
237	0xc049000000000000	-50.0
238	0x4056000000000000	88.0
239	0xc045000000000000	-42.0
240	0xc039000000000000	-25.0
241	0xc040800000000000	-33.0
242	0x4050800000000000	66.0
243	0xc02a000000000000	-13.0
244	0xc058c00000000000	-99.0
245	0xc018000000000000	-6.0
246	0xc048800000000000	-49.0
247	0xc024000000000000	-10.0
248	0xc045000000000000	-42.0
249	0xc04e000000000000	-60.0
250	0x4031000000000000	17.0
251	0x4026000000000000	11.0
252	0x4020000000000000	8.0
253	0xc042000000000000	-36.0
254	0xc02c000000000000	-14.0
255	0xc052400000000000	-73.0
